…
INFO:datasets.dataset_mappers.dolphin_dataset_mapper:[Dolphin DatasetMapper] Full TransformGens used: [RandomFlip(), ResizeScale(min_scale=0.9, max_scale=2.0, target_height=512, target_width=512), Resize(shape=(512, 512))]
INFO:detectron2.data.datasets.coco:Loaded 1500 images in COCO format from /home/hrw/datasets/ndd20/coco/train_1500.coco.json
INFO:datasets.build:Removed 0 images with no usable annotations. 1500 images left.
INFO:datasets.build:Using training sampler TrainingSampler
INFO:base_dir.pipeline.XDecoderPipeline:GeneralizedSEEM(
  (backbone): D2FocalNet(
    (patch_embed): PatchEmbed(
      (proj): Conv2d(3, 192, kernel_size=(7, 7), stride=(4, 4), padding=(2, 2))
      (norm): LayerNorm((192,), eps=1e-05, elementwise_affine=True)
    )
    (pos_drop): Dropout(p=0.0, inplace=False)
    (layers): ModuleList(
      (0): BasicLayer(
        (blocks): ModuleList(
          (0): FocalModulationBlock(
            (norm1): LayerNorm((192,), eps=1e-05, elementwise_affine=True)
            (modulation): FocalModulation(
              (f): Linear(in_features=192, out_features=389, bias=True)
              (h): Conv2d(192, 192, kernel_size=(1, 1), stride=(1, 1))
              (act): GELU(approximate='none')
              (proj): Linear(in_features=192, out_features=192, bias=True)
              (proj_drop): Dropout(p=0.0, inplace=False)
              (focal_layers): ModuleList(
                (0): Sequential(
                  (0): Conv2d(192, 192, kernel_size=(3, 3), stride=(1, 1), padding=(1, 1), groups=192, bias=False)
                  (1): GELU(approximate='none')
                )
                (1): Sequential(
                  (0): Conv2d(192, 192, kernel_size=(5, 5), stride=(1, 1), padding=(2, 2), groups=192, bias=False)
                  (1): GELU(approximate='none')
                )
                (2): Sequential(
                  (0): Conv2d(192, 192, kernel_size=(7, 7), stride=(1, 1), padding=(3, 3), groups=192, bias=False)
                  (1): GELU(approximate='none')
                )
                (3): Sequential(
                  (0): Conv2d(192, 192, kernel_size=(9, 9), stride=(1, 1), padding=(4, 4), groups=192, bias=False)
                  (1): GELU(approximate='none')
                )
              )
            )
            (drop_path): Identity()
            (norm2): LayerNorm((192,), eps=1e-05, elementwise_affine=True)
            (mlp): Mlp(
              (fc1): Linear(in_features=192, out_features=768, bias=True)
              (act): GELU(approximate='none')
              (fc2): Linear(in_features=768, out_features=192, bias=True)
              (drop): Dropout(p=0.0, inplace=False)
            )
          )
          (1): FocalModulationBlock(
            (norm1): LayerNorm((192,), eps=1e-05, elementwise_affine=True)
            (modulation): FocalModulation(
              (f): Linear(in_features=192, out_features=389, bias=True)
              (h): Conv2d(192, 192, kernel_size=(1, 1), stride=(1, 1))
              (act): GELU(approximate='none')
              (proj): Linear(in_features=192, out_features=192, bias=True)
              (proj_drop): Dropout(p=0.0, inplace=False)
              (focal_layers): ModuleList(
                (0): Sequential(
                  (0): Conv2d(192, 192, kernel_size=(3, 3), stride=(1, 1), padding=(1, 1), groups=192, bias=False)
                  (1): GELU(approximate='none')
                )
                (1): Sequential(
                  (0): Conv2d(192, 192, kernel_size=(5, 5), stride=(1, 1), padding=(2, 2), groups=192, bias=False)
                  (1): GELU(approximate='none')
                )
                (2): Sequential(
                  (0): Conv2d(192, 192, kernel_size=(7, 7), stride=(1, 1), padding=(3, 3), groups=192, bias=False)
                  (1): GELU(approximate='none')
                )
                (3): Sequential(
                  (0): Conv2d(192, 192, kernel_size=(9, 9), stride=(1, 1), padding=(4, 4), groups=192, bias=False)
                  (1): GELU(approximate='none')
                )
              )
            )
            (drop_path): DropPath()
            (norm2): LayerNorm((192,), eps=1e-05, elementwise_affine=True)
            (mlp): Mlp(
              (fc1): Linear(in_features=192, out_features=768, bias=True)
              (act): GELU(approximate='none')
              (fc2): Linear(in_features=768, out_features=192, bias=True)
              (drop): Dropout(p=0.0, inplace=False)
            )
          )
        )
        (downsample): PatchEmbed(
          (proj): Conv2d(192, 384, kernel_size=(3, 3), stride=(2, 2), padding=(1, 1))
          (norm): LayerNorm((384,), eps=1e-05, elementwise_affine=True)
        )
      )
      (1): BasicLayer(
        (blocks): ModuleList(
          (0-1): 2 x FocalModulationBlock(
            (norm1): LayerNorm((384,), eps=1e-05, elementwise_affine=True)
            (modulation): FocalModulation(
              (f): Linear(in_features=384, out_features=773, bias=True)
              (h): Conv2d(384, 384, kernel_size=(1, 1), stride=(1, 1))
              (act): GELU(approximate='none')
              (proj): Linear(in_features=384, out_features=384, bias=True)
              (proj_drop): Dropout(p=0.0, inplace=False)
              (focal_layers): ModuleList(
                (0): Sequential(
                  (0): Conv2d(384, 384, kernel_size=(3, 3), stride=(1, 1), padding=(1, 1), groups=384, bias=False)
                  (1): GELU(approximate='none')
                )
                (1): Sequential(
                  (0): Conv2d(384, 384, kernel_size=(5, 5), stride=(1, 1), padding=(2, 2), groups=384, bias=False)
                  (1): GELU(approximate='none')
                )
                (2): Sequential(
                  (0): Conv2d(384, 384, kernel_size=(7, 7), stride=(1, 1), padding=(3, 3), groups=384, bias=False)
                  (1): GELU(approximate='none')
                )
                (3): Sequential(
                  (0): Conv2d(384, 384, kernel_size=(9, 9), stride=(1, 1), padding=(4, 4), groups=384, bias=False)
                  (1): GELU(approximate='none')
                )
              )
            )
            (drop_path): DropPath()
            (norm2): LayerNorm((384,), eps=1e-05, elementwise_affine=True)
            (mlp): Mlp(
              (fc1): Linear(in_features=384, out_features=1536, bias=True)
              (act): GELU(approximate='none')
              (fc2): Linear(in_features=1536, out_features=384, bias=True)
              (drop): Dropout(p=0.0, inplace=False)
            )
          )
        )
        (downsample): PatchEmbed(
          (proj): Conv2d(384, 768, kernel_size=(3, 3), stride=(2, 2), padding=(1, 1))
          (norm): LayerNorm((768,), eps=1e-05, elementwise_affine=True)
        )
      )
      (2): BasicLayer(
        (blocks): ModuleList(
          (0-17): 18 x FocalModulationBlock(
            (norm1): LayerNorm((768,), eps=1e-05, elementwise_affine=True)
            (modulation): FocalModulation(
              (f): Linear(in_features=768, out_features=1541, bias=True)
              (h): Conv2d(768, 768, kernel_size=(1, 1), stride=(1, 1))
              (act): GELU(approximate='none')
              (proj): Linear(in_features=768, out_features=768, bias=True)
              (proj_drop): Dropout(p=0.0, inplace=False)
              (focal_layers): ModuleList(
                (0): Sequential(
                  (0): Conv2d(768, 768, kernel_size=(3, 3), stride=(1, 1), padding=(1, 1), groups=768, bias=False)
                  (1): GELU(approximate='none')
                )
                (1): Sequential(
                  (0): Conv2d(768, 768, kernel_size=(5, 5), stride=(1, 1), padding=(2, 2), groups=768, bias=False)
                  (1): GELU(approximate='none')
                )
                (2): Sequential(
                  (0): Conv2d(768, 768, kernel_size=(7, 7), stride=(1, 1), padding=(3, 3), groups=768, bias=False)
                  (1): GELU(approximate='none')
                )
                (3): Sequential(
                  (0): Conv2d(768, 768, kernel_size=(9, 9), stride=(1, 1), padding=(4, 4), groups=768, bias=False)
                  (1): GELU(approximate='none')
                )
              )
            )
            (drop_path): DropPath()
            (norm2): LayerNorm((768,), eps=1e-05, elementwise_affine=True)
            (mlp): Mlp(
              (fc1): Linear(in_features=768, out_features=3072, bias=True)
              (act): GELU(approximate='none')
              (fc2): Linear(in_features=3072, out_features=768, bias=True)
              (drop): Dropout(p=0.0, inplace=False)
            )
          )
        )
        (downsample): PatchEmbed(
          (proj): Conv2d(768, 1536, kernel_size=(3, 3), stride=(2, 2), padding=(1, 1))
          (norm): LayerNorm((1536,), eps=1e-05, elementwise_affine=True)
        )
      )
      (3): BasicLayer(
        (blocks): ModuleList(
          (0-1): 2 x FocalModulationBlock(
            (norm1): LayerNorm((1536,), eps=1e-05, elementwise_affine=True)
            (modulation): FocalModulation(
              (f): Linear(in_features=1536, out_features=3077, bias=True)
              (h): Conv2d(1536, 1536, kernel_size=(1, 1), stride=(1, 1))
              (act): GELU(approximate='none')
              (proj): Linear(in_features=1536, out_features=1536, bias=True)
              (proj_drop): Dropout(p=0.0, inplace=False)
              (focal_layers): ModuleList(
                (0): Sequential(
                  (0): Conv2d(1536, 1536, kernel_size=(3, 3), stride=(1, 1), padding=(1, 1), groups=1536, bias=False)
                  (1): GELU(approximate='none')
                )
                (1): Sequential(
                  (0): Conv2d(1536, 1536, kernel_size=(5, 5), stride=(1, 1), padding=(2, 2), groups=1536, bias=False)
                  (1): GELU(approximate='none')
                )
                (2): Sequential(
                  (0): Conv2d(1536, 1536, kernel_size=(7, 7), stride=(1, 1), padding=(3, 3), groups=1536, bias=False)
                  (1): GELU(approximate='none')
                )
                (3): Sequential(
                  (0): Conv2d(1536, 1536, kernel_size=(9, 9), stride=(1, 1), padding=(4, 4), groups=1536, bias=False)
                  (1): GELU(approximate='none')
                )
              )
            )
            (drop_path): DropPath()
            (norm2): LayerNorm((1536,), eps=1e-05, elementwise_affine=True)
            (mlp): Mlp(
              (fc1): Linear(in_features=1536, out_features=6144, bias=True)
              (act): GELU(approximate='none')
              (fc2): Linear(in_features=6144, out_features=1536, bias=True)
              (drop): Dropout(p=0.0, inplace=False)
            )
          )
        )
      )
    )
    (norm0): LayerNorm((192,), eps=1e-05, elementwise_affine=True)
    (norm1): LayerNorm((384,), eps=1e-05, elementwise_affine=True)
    (norm2): LayerNorm((768,), eps=1e-05, elementwise_affine=True)
    (norm3): LayerNorm((1536,), eps=1e-05, elementwise_affine=True)
  )
  (sem_seg_head): XdecoderHead(
    (pixel_decoder): TransformerEncoderPixelDecoder(
      (adapter_1): Conv2d(
        192, 512, kernel_size=(1, 1), stride=(1, 1), bias=False
        (norm): GroupNorm(32, 512, eps=1e-05, affine=True)
      )
      (layer_1): Conv2d(
        512, 512, kernel_size=(3, 3), stride=(1, 1), padding=(1, 1), bias=False
        (norm): GroupNorm(32, 512, eps=1e-05, affine=True)
      )
      (adapter_2): Conv2d(
        384, 512, kernel_size=(1, 1), stride=(1, 1), bias=False
        (norm): GroupNorm(32, 512, eps=1e-05, affine=True)
      )
      (layer_2): Conv2d(
        512, 512, kernel_size=(3, 3), stride=(1, 1), padding=(1, 1), bias=False
        (norm): GroupNorm(32, 512, eps=1e-05, affine=True)
      )
      (adapter_3): Conv2d(
        768, 512, kernel_size=(1, 1), stride=(1, 1), bias=False
        (norm): GroupNorm(32, 512, eps=1e-05, affine=True)
      )
      (layer_3): Conv2d(
        512, 512, kernel_size=(3, 3), stride=(1, 1), padding=(1, 1), bias=False
        (norm): GroupNorm(32, 512, eps=1e-05, affine=True)
      )
      (mask_features): Conv2d(512, 512, kernel_size=(3, 3), stride=(1, 1), padding=(1, 1))
      (input_proj): Conv2d(1536, 512, kernel_size=(1, 1), stride=(1, 1))
      (transformer): TransformerEncoderOnly(
        (encoder): TransformerEncoder(
          (layers): ModuleList(
            (0-5): 6 x TransformerEncoderLayer(
              (self_attn): MultiheadAttention(
                (out_proj): NonDynamicallyQuantizableLinear(in_features=512, out_features=512, bias=True)
              )
              (linear1): Linear(in_features=512, out_features=2048, bias=True)
              (dropout): Dropout(p=0.0, inplace=False)
              (linear2): Linear(in_features=2048, out_features=512, bias=True)
              (norm1): LayerNorm((512,), eps=1e-05, elementwise_affine=True)
              (norm2): LayerNorm((512,), eps=1e-05, elementwise_affine=True)
              (dropout1): Dropout(p=0.0, inplace=False)
              (dropout2): Dropout(p=0.0, inplace=False)
            )
          )
        )
      )
      (pe_layer): Positional encoding PositionEmbeddingSine
          num_pos_feats: 256
          temperature: 10000
          normalize: True
          scale: 6.283185307179586
      (layer_4): Conv2d(
        512, 512, kernel_size=(3, 3), stride=(1, 1), padding=(1, 1), bias=False
        (norm): GroupNorm(32, 512, eps=1e-05, affine=True)
      )
    )
    (predictor): SEEMDecoder(
      (pe_layer): Positional encoding PositionEmbeddingSine
          num_pos_feats: 256
          temperature: 10000
          normalize: True
          scale: 6.283185307179586
      (transformer_self_attention_layers): ModuleList(
        (0-8): 9 x SelfAttentionLayer(
          (self_attn): MultiheadAttention(
            (out_proj): NonDynamicallyQuantizableLinear(in_features=512, out_features=512, bias=True)
          )
          (norm): LayerNorm((512,), eps=1e-05, elementwise_affine=True)
          (dropout): Dropout(p=0.0, inplace=False)
        )
      )
      (transformer_cross_attention_layers): ModuleList(
        (0-8): 9 x CrossAttentionLayer(
          (multihead_attn): MultiheadAttention(
            (out_proj): NonDynamicallyQuantizableLinear(in_features=512, out_features=512, bias=True)
          )
          (norm): LayerNorm((512,), eps=1e-05, elementwise_affine=True)
          (dropout): Dropout(p=0.0, inplace=False)
        )
      )
      (transformer_ffn_layers): ModuleList(
        (0-8): 9 x FFNLayer(
          (linear1): Linear(in_features=512, out_features=2048, bias=True)
          (dropout): Dropout(p=0.0, inplace=False)
          (linear2): Linear(in_features=2048, out_features=512, bias=True)
          (norm): LayerNorm((512,), eps=1e-05, elementwise_affine=True)
        )
      )
      (decoder_norm): LayerNorm((512,), eps=1e-05, elementwise_affine=True)
      (query_feat): Embedding(101, 512)
      (query_embed): Embedding(101, 512)
      (level_embed): Embedding(3, 512)
      (input_proj): ModuleList(
        (0-2): 3 x Sequential()
      )
      (lang_encoder): LanguageEncoder(
        (lang_encoder): Transformer(
          (token_embedding): Embedding(49408, 512)
          (resblocks): ModuleList(
            (0-11): 12 x ResidualAttentionBlock(
              (attn): MultiheadAttention(
                (out_proj): NonDynamicallyQuantizableLinear(in_features=512, out_features=512, bias=True)
              )
              (ln_1): LayerNorm()
              (mlp): Sequential(
                (c_fc): Linear(in_features=512, out_features=2048, bias=True)
                (gelu): QuickGELU()
                (c_proj): Linear(in_features=2048, out_features=512, bias=True)
              )
              (ln_2): LayerNorm()
              (drop_path): Identity()
            )
          )
          (ln_final): LayerNorm()
        )
      )
      (mask_embed): MLP(
        (layers): ModuleList(
          (0-2): 3 x Linear(in_features=512, out_features=512, bias=True)
        )
      )
      (attention_data): AttentionDataStruct()
    )
  )
  (criterion): Criterion SetCriterion
      matcher: Matcher HungarianMatcher
          cost_class: 2.0
          cost_mask: 5.0
          cost_dice: 5.0
      losses: []
      
…
